…
INFO:root:Namespace(SESSION='camera_ready_256_channel_top_k_6_conv_bias_true_w_g_epoch_40', batch_size=32, beta1=0.9, channel_dim=256, cosinelr_scheduler=True, cuda=True, eval_interval=2, heads=8, job_id='198958', lr=0.001, lr_min=0.0005, manualSeed=3483, nclass_all=1006, nepoch=40, nseen_class=925, save_path='nus_results', src='../../../../data', summary='Summary', test_batch_size=100, test_interval=10, train=True, train_full_data=False, train_full_lr=0.000333, val_batch_size=100, workers=16)
INFO:root:===> Loading datasets
INFO:root:../../../../data
INFO:root:===> Result path 
INFO:root:nus_results/NUS_WIDE_camera_ready_256_channel_top_k_6_conv_bias_true_w_g_epoch_40
INFO:root:===> total samples
INFO:root:129431
INFO:root:BiAM(
  (conv_3X3): CONV3_3(
    (body): Conv2d(512, 256, kernel_size=(3, 3), stride=(1, 1), padding=(1, 1))
    (bn): BatchNorm2d(256, eps=0.001, momentum=0.99, affine=True, track_running_stats=True)
    (relu): ReLU(inplace)
  )
  (region_context_block): RCB(
    (w_q): Conv2d(256, 256, kernel_size=(1, 1), stride=(1, 1))
    (w_k): Conv2d(256, 256, kernel_size=(1, 1), stride=(1, 1))
    (w_v): Conv2d(256, 256, kernel_size=(1, 1), stride=(1, 1))
    (w_o): Conv2d(256, 256, kernel_size=(1, 1), stride=(1, 1))
    (dropout_1): Dropout(p=0.1)
    (dropout_2): Dropout(p=0.1)
    (sub_network): C_R(
      (conv1): Conv2d(256, 512, kernel_size=(1, 1), stride=(1, 1))
      (conv2): Conv2d(512, 256, kernel_size=(1, 1), stride=(1, 1))
    )
  )
  (scene_context_block): SCB(
    (sigmoid): Sigmoid()
    (gcdropout): Dropout(p=0.2)
    (lrelu): LeakyReLU(negative_slope=0.2)
    (w_g): Conv2d(4096, 256, kernel_size=(1, 1), stride=(1, 1))
    (gcff): CONV3_3(
      (body): Conv2d(256, 256, kernel_size=(3, 3), stride=(1, 1), padding=(1, 1))
      (bn): BatchNorm2d(256, eps=0.001, momentum=0.99, affine=True, track_running_stats=True)
      (relu): ReLU(inplace)
    )
    (channel_conv): CONV1_1(
      (body): Conv2d(256, 256, kernel_size=(1, 1), stride=(1, 1))
    )
  )
  (W): Linear(in_features=300, out_features=512, bias=True)
  (conv_1X1): CONV1_1(
    (body): Conv2d(512, 512, kernel_size=(1, 1), stride=(1, 1))
  )
  (lrelu): LeakyReLU(negative_slope=0.2, inplace)
)
INFO:root:initial learning rate 0.001
INFO:root:Adam (
Parameter Group 0
    amsgrad: False
    betas: (0.9, 0.999)
    eps: 1e-08
    initial_lr: 0.001
    lr: 0.0003333333333333333
    weight_decay: 0.0005
)
INFO:root:TRAINING MODE
INFO:root:------------------------------------------------------------------
…
