…
on 512 (mean of 14x14, sigmoid BSx512 atn) passed through 3x3 Conv-Relu-BN with skip connection, then concat with SAFF/SA out, 512-1024-1024 used as FF (No Relu at out) and passed to 1x1 Conv-LRelu and to 512 W.  No Relu after GContext. Changed W1 and Wcyc params to linear layers. Finetune LR 0.00033.', test_batch_size=32, test_interval=10, train=False, val_batch_size=32, vgg=False, vgg_base_trainmode=False, vgg_baseline=False, workers=16)
INFO:root:===> Loading datasets
INFO:root:./data
INFO:root:===> total samples
INFO:root:8139
INFO:root:AttentionClassifier(
  (conv_layer1): CONV(
    (body): Conv2d(512, 512, kernel_size=(3, 3), stride=(1, 1), padding=(1, 1))
    (bn): BatchNorm2d(512, eps=0.001, momentum=0.99, affine=True, track_running_stats=True)
    (relu): ReLU(inplace)
  )
  (self_attn1): MultiHeadAttention(
    (query_conv): Conv2d(512, 512, kernel_size=(1, 1), stride=(1, 1))
    (key_conv): Conv2d(512, 512, kernel_size=(1, 1), stride=(1, 1))
    (value_conv): Conv2d(512, 512, kernel_size=(1, 1), stride=(1, 1))
    (out): Conv2d(512, 512, kernel_size=(1, 1), stride=(1, 1))
    (dropout_1): Dropout(p=0.1)
    (sigmoid): Sigmoid()
    (dropout_2): Dropout(p=0.1)
  )
  (ff1): FeedForward(
    (conv1): Conv2d(512, 1024, kernel_size=(1, 1), stride=(1, 1))
    (conv2): Conv2d(1024, 512, kernel_size=(1, 1), stride=(1, 1))
  )
  (W1): Linear(in_features=300, out_features=512, bias=True)
  (conv_layer2): CONV(
    (body): Conv2d(1024, 512, kernel_size=(1, 1), stride=(1, 1))
  )
  (vgg_net): VggClassifier(
    (dropout): Dropout(p=0.3)
  )
  (sigmoid): Sigmoid()
  (gcdropout): Dropout(p=0.2)
  (linear1): Linear(in_features=4096, out_features=512, bias=True)
  (gcff): CONV(
    (body): Conv2d(512, 512, kernel_size=(3, 3), stride=(1, 1), padding=(1, 1))
    (bn): BatchNorm2d(512, eps=0.001, momentum=0.99, affine=True, track_running_stats=True)
    (relu): ReLU(inplace)
  )
  (lrelu): LeakyReLU(negative_slope=0.2, inplace)
  (lrelu2): LeakyReLU(negative_slope=0.2)
  (relu): ReLU(inplace)
)
INFO:root:=======================EVALUATION MODE=======================
INFO:root:results/NUS_WIDE_OpenImages_vgg_conv_sa_ff_gc_lr0.0001_lrelu_heads_8_gcontext_1_LRELU_seed_3483_less_than_40_labels/model_latest_600_5.pth
…
